saved_models/cnn_model.pth (torch, 80363 bytes, 6 tensors)

embedding.weight f4 [105, 128]
00000000: 1569 7b3f 6fa5 2140 5cac 83bf 4160 28c0
00000010: d80b 2bc0 a65b 9c3f aa30 8e3e c610 a7bd
00000020: 13ee ee3f cd70 b53f 60ca bbbe 051e 86bd
00000030: 4ebf b13e d86a ea3e fb2d 1bbf f21b a1bf
00000040: 93c5 0f3f f0b0 803e 209d b4bf c863 a13e
00000050: ba8d b5bd d858 853f 1792 e93e 2e31 0abd
00000060: c3df bdbd 17d1 843f ceb3 5c3f e5ef e9bf
00000070: 25c0 303d 29df d03e 2b4b 46bf c371 34bf
00000080: 3d7b 21bf 8404 9bbd 397a dfbf 365b 6abf
00000090: acd0 bb3f 8f7a 08bf b7f3 d3bf 97b7 6bbe
000000a0: 1b6a 0cc0 04b0 d13d 869f f7bd 54d1 1e3f
000000b0: 9b73 ad3f 0518 893f f994 a53f 4afd 5d3f
000000c0: 9a73 913f 9175 0abf 25a5 943f c621 a53e
000000d0: abf8 9ebe fb8b 4740 8a3c 4cbf a8b6 6a3e
000000e0: c327 8abf f73e 473e a1a3 f03e 6517 043f
000000f0: 898b 2ebf d6f9 c6be 9368 e1bf 6248 91be
00000100: 0f83 fe3f 7589 4d3f 662f 7b3e aecc 00bf
00000110: ac8d 68bd 9413 8d3e 3f73 513f 327b b5bf
00000120: 8703 c2be a68f d43e 0ef1 b6be 72b0 51bf
00000130: 8855 8f3e 05e9 273e ce4c 7c3f 2fc1 f4bd
00000140: 2d43 93bf 56b8 41bd b66f b6be e749 43bf
00000150: 7e02 9c3f b754 f23f 35b0 ca3e 4533 ad3f
00000160: a778 8abf e778 263f 3ce6 b23f e29a 0240
00000170: 1489 00c0 ef3b 16c0 93bf 12c0 6e5a 1f3f
00000180: 44ad 29bf 0c14 3a3f 68f1 dfbf 5601 c23f
00000190: 5e21 c93d 318b 8f3f 2a9a 35bf c81f 753d
000001a0: 7e7f e0bf e3b5 98be bb6c 2a40 3d38 033f
000001b0: 3161 25bf 777b 633f 9ba7 8ebf 1c44 993f
000001c0: 5cd8 6ebf 502d 8ebf bab7 5bbf 01a3 9f3e
000001d0: 22fc 88bd 4862 a5be df43 b93f 8792 d9bf
000001e0: 7d63 f7be 3abe 243f 0f68 b13f 0276 a4be
000001f0: 24f2 bbbf e355 1dbf 8df2 84bf 40ec 30c0
00000200: 9fb8 d8be 6e2a f6bd 4c00 b03e e4e2 dbbf
00000210: 1e7b 7f3f f6a0 54bf bf90 16bf 9893 773f
00000220: ba60 91bf 96f3 9b3e 8fbe c23f f101 b83e
00000230: 47c0 83bf c82c 61bf 6f4f 79bf 0cc3 863f
00000240: c411 e2bf e38e 89bf 9303 0a40 f140 93bd
00000250: eed7 a63e c9a2 7f3f 4dbb aabf c7df a23f
00000260: 1ab3 d73d 9800 833f 1b11 9c3f 174d 7e3f
00000270: 8d71 113f 33dd f73d 4c39 7f3e 40f7 cfbe
00000280: 9d6d ab3e 99a4 0640 955a b73f 970a 8b3f
00000290: 0053 0abf 9f69 f1bf 9dac b13e fff9 12c0
000002a0: e3c7 5fbf a4d3 bd3f f743 1cbd a76f 69bf
000002b0: e809 bcbf d029 04bf 0393 433e e267 123f
000002c0: 0e56 debf 74ca d6be a3d2 813e 5f3b 2bbf
000002d0: ca0a 52be 5dae 3cbf 2610 4bbf b2a8 b2bf
000002e0: 8667 b93f 1d15 f93f a347 2c3e 3ace 3a3e
000002f0: 6591 e53f e083 45bf cfde 683f 29da 903f
00000300: c48d 973e 2b5d 913e bfc3 913f c21c d8be
00000310: e9ef d4bf e310 65be 76a1 8abf d540 56be
00000320: c08f 5ebe 02d3 0a3f a3db 27bd b7a0 4fbf
00000330: 97d2 a4bf e966 6ebd 1045 da3f cfe3 a7bf
00000340: 6390 443f 2acb 96bf 0ace 30bf edab 75be
00000350: f216 41bf e22a 183f 4f19 053f 59c4 443f
00000360: 22b9 04bf dbff 9fbe 166d 0cbf cdd0 ac3e
00000370: 110c fbbd 20cc db3d 2287 7d3f 0143 bfbf
00000380: 3322 873f b73e 593e ad0c 0c3f 5f21 82bf
00000390: c25c e1bf f432 aabe 8293 3d3f 70f8 0d40
000003a0: 4a6e 903e e2c4 4b3c f6a8 ac3e fd2f 86bf
000003b0: 9b3e 223f c468 15bf 63a1 2ebf 37d4 3a3f
000003c0: 9b3f 9b3f 2190 e7bf 77c2 49be be32 c43f
000003d0: 66fd 9a3f 1c06 1ebf 2e2f 823e 8b6b 8fbf
000003e0: bb92 5b3b ed92 adbf 509e 9cbf 410e c53f
000003f0: 6d46 543f 81d9 8fbf ed67 91bf e967 83bd
0.9820722 2.5257223 -1.0286975 -2.6308749 -2.672598 1.2215469 0.27771503 -0.08157496
1.8666404 1.4175049 -0.36677837 -0.065486945 0.34716266 0.4578464 -0.60617036 -1.2586653
0.5616085 0.25134993 -1.4110451 0.3152144 -0.08864923 1.0417738 0.4561927 -0.033738308
-0.09271195 1.0376309 0.8621186 -1.8276335 0.043151993 0.40795258 -0.7745845 -0.70486087
-0.6307867 -0.07569221 -1.7459174 -0.91545427 1.4673057 -0.5331201 -1.6558751 -0.23019253
-2.1939762 0.102386504 -0.120909736 0.6203816 1.3550905 1.0710455 1.2936088 0.86714613
1.1363404 -0.5408564 1.1612898 0.3225233 -0.31049094 3.1179187 -0.79779875 0.2292124
-1.0793384 0.19457613 0.4699984 0.515982 -0.68181664 -0.38862485 -1.7610039 -0.28375536
1.9883746 0.8028787 0.245298 -0.50312316 -0.056775734 0.27554 0.81816477 -1.4178221
-0.37893316 0.41515845 -0.35730785 -0.8190986 0.27994943 0.16397484 0.98554695 -0.11950909
-1.1504875 -0.047294937 -0.35632104 -0.7628464 1.218826 1.8932103 0.3958756 1.3531271
-1.081807 0.6502823 1.3976512 2.0407033 -2.0083666 -2.347408 -2.2929428 0.6224736
-0.6628001 0.7268684 -1.7495546 1.5156658 0.098208174 1.1214353 -0.7093836 0.059844762
-1.7538908 -0.2982627 2.6628864 0.5125769 -0.6460143 0.8886027 -1.1144899 1.197391
-0.9329889 -1.1107578 -0.8582722 0.3117905 -0.066887155 -0.32301545 1.4473838 -1.6997842
-0.4831809 0.6435276 1.3859881 -0.32121283 -1.468327 -0.6145918 -1.0386521 -2.7644196
-0.42328355 -0.120198116 0.34375226 -1.7178617 0.99797237 -0.83058107 -0.58814615 0.96709585
-1.1357644 0.3045928 1.5214404 0.3593898 -1.0293053 -0.87958956 -0.9738683 1.0528274
-1.7661672 -1.074673 2.1564682 -0.07190121 0.32586616 0.99857765 -1.333841 1.2724541
0.10532208 1.0234556 1.219272 0.9933638 0.5681389 0.12102737 0.24924201 -0.40618324
0.33482066 2.1037962 1.4324518 1.0862607 -0.540329 -1.8860358 0.34702006 -2.2965086
-0.8741438 1.4830213 -0.038150754 -0.9118599 -1.4690523 -0.516263 0.1909905 0.5718976
-1.7370012 -0.41951334 0.25356016 -0.6688747 -0.20511928 -0.7370356 -0.79321516 -1.3957732
1.4484718 1.9459568 0.16824202 0.18242732 1.7934996 -0.7715435 0.9096498 1.1316577
0.29600346 0.28391394 1.1387862 -0.4220944 -1.6635715 -0.22369723 -1.0830524 -0.20923169
-0.21734524 0.5422822 -0.040980946 -0.81104606 -1.2876767 -0.05820361 1.7052326 -1.3116397
0.76782817 -1.1780751 -0.6906439 -0.23991366 -0.75425637 0.59440434 0.5199174 0.768621
-0.5184499 -0.3124989 -0.5485395 0.33753052 -0.12258161 0.10732293 0.9903432 -1.4942323
1.0557312 0.2121533 0.5470684 -1.0166434 -1.7606432 -0.33242 0.74053204 2.2182884
0.28209144 0.012437077 0.33722657 -1.0483395 0.6337678 -0.58362985 -0.68215007 0.72980064
1.2128786 -1.809086 -0.19703089 1.5327985 1.2108581 -0.6172807 0.2542662 -1.1204695
0.0033504206 -1.3560463 -1.2235813 1.5394975 0.8291996 -1.1238252 -1.1359841 -0.06416304

conv1d.weight f4 [6, 128, 5]
00000000: efd3 143e a4d0 f4bd 1b73 6d3d 37d3 37be
00000010: ffd7 83bd 4ceb 1a3e 925d 92bc 7adb 093e
00000020: e772 1d3d ad38 81be 3a3c 44be c952 ae3d
00000030: 3839 bf3d 05ce 013e 5fc8 8a3c 540e 4bbe
00000040: b09d 943d 6136 0ebe 690f e3bd 51a8 95bd
00000050: 7022 2fbe b05f a4bd cd0b 753d 1ddf 723d
00000060: cc11 b93d b359 45bd fc74 2abd d1ea 57be
00000070: 9f98 eebd fd3a ab3d 012b 60be f1bf 97bd
00000080: ce3a 923d 97ff 12be 32bb 3f3e f057 2ebe
00000090: f279 a0bd 5fa9 343d 25cb 94bb 95f6 43bd
000000a0: 8f83 983d 74a3 bc3c 74ec 763d 3284 0f3e
000000b0: 7efb c83d 2e4b 2f3e cd8f 3fbd 48b6 1d3d
000000c0: fbd2 973c d895 713d 513c a03d 3865 b93c
000000d0: dc78 2bbc 05cc eebd 0975 eb3c 2814 433d
000000e0: 3e59 943d bedd 9abd 8a82 283e 619b 15be
000000f0: 1b00 c0bd eabb b43c 1b15 463d 5b73 b5bd
00000100: c43d dabd 054c 24be 8a08 45bd 5e18 373e
00000110: bd61 733e f7fc 84bd c526 62bd 1151 5b3e
00000120: a442 0e3e 3f73 153e 70c0 4b3e 7d68 98bd
00000130: 64ce 05be 7cc7 7dbd 993a 91be f526 25bc
00000140: e183 27be d2dd f6bd a51b dd3d 30af b4bd
00000150: 13f0 d6bd 87df 4b3b 6afb 2f3c ff7b 393d
00000160: 5164 2ebe f8f3 463d c86d 16be ec00 4ebd
00000170: f905 073e df3d 83be 9bef f63d a2a9 153d
00000180: 29e2 01bd c927 adbd 68be 10be 1e7e 00be
00000190: 35f9 9ebd a153 46bd b5cf f2bd 57a6 6dbd
000001a0: 1eb8 713d 6fc4 dbbd bcac 14be 54cf 5ebd
000001b0: 9d8b ecbd b52e 0d3e 2b3e 8f3e bf2c 5a3d
000001c0: 4a8c 093e 5c11 96bd 8c7e 3c3e a7e8 f83d
000001d0: 5239 3c3d a949 febd f199 3dbe 8b78 b9bb
000001e0: d215 d33d cc44 b83d 9624 0bbd 7d00 98bd
000001f0: 7d8b 733e 7440 bfbb 5ec0 813c 0025 a93d
00000200: e701 bc3d 18ec 4dbc fc9d d7bd 932e aa3d
00000210: 3ab1 a53e aad6 543e 94c5 293d 11bd c9bd
00000220: c26e 74bc a33a 0e3e 9c4e dbbd 3f21 91bd
00000230: b46c c23d 6a12 94bd d853 afbd ece4 2fbd
00000240: 753f 233e 8c82 6b3d d5b4 933c 7a3b b83d
00000250: e198 b63e 62aa 22bd f2ce 523e 6537 3a3e
00000260: 8eec 88bd 8ded 2abd e8f4 f53d dc92 bf3c
00000270: 1923 663d 3da3 abbd 82d2 0dbe 4f1d 34bd
00000280: b572 11be 96c2 5c3c 76bb 123d 247a 76be
00000290: 7139 46bd 8e19 373d 8e93 a5bd 544e 83bd
000002a0: 5b6c a0bd 876b 0ebd 9b14 3a3e cb0a 423e
000002b0: 3b0f a3bc e5d5 84bd 701a ab3d 04ff fabc
000002c0: a6e8 e33d a486 15be 057e 383d 71e3 cc3b
000002d0: 6e5d 143c d5d6 47bd 1530 fb3d 6320 a93d
000002e0: 4bed c03c ae2b 0e3e f88e e0bd f685 eebc
000002f0: ba96 863c 8757 b5bd 2437 f8bd b8ec f13d
00000300: ea03 c2bd 8e23 67be b259 c23b 5374 51bd
00000310: 2c30 163c 2804 0fbe 3444 4c3e 9b85 9fbe
00000320: 026a 1b3e f493 97be bc71 5fbe 5d76 023e
00000330: 2797 45be 7eda 0cbe 523e e1bc d722 8c3d
00000340: cdb1 06bd 96fd b9bd 771f 11bd 0c4b e0bd
00000350: f15d 813d 90a3 b83d 6f10 093d 28d3 623e
00000360: 43ed a7bd 9560 0cbe 3e8d 46bc 1976 3d3d
00000370: eb26 a43e 75b8 3a3d 9547 933c aa6d 0d3d
00000380: 7a6b 80bd 8bb7 e73d 1420 c4bd f197 edbc
00000390: 87ba 823d 07b3 263e 7bb0 07be 0162 34be
000003a0: 63c5 4f3e b2e1 193e dcdd 0ebe 6a0c 8d3c
000003b0: 13fe cc3d da9b b23c 828f bfbd af97 813c
000003c0: 63fe 5a3d 17c2 d2bd ae98 143d 8dc3 93be
000003d0: b339 de3b 65c5 213e 3d3b ae3b 4e9d 4dbd
000003e0: f85e 38bc 3f60 7e3d e23a 263c 599c 373d
000003f0: d7c5 473e d180 6d3e ac25 713e 254a 123e
0.14533971 -0.119538575 0.0579711 -0.17951666 -0.06437682 0.15128821 -0.017866883 0.1346263
0.038439658 -0.25238553 -0.191636 0.08511884 0.093370855 0.12676246 0.016941248 -0.19829684
0.07256639 -0.13887931 -0.11086924 -0.073074944 -0.1710298 -0.080260634 0.059825707 0.05929481
0.090365976 -0.048181247 -0.04161547 -0.21085669 -0.11650204 0.083608605 -0.21891405 -0.07409657
0.07140122 -0.14355312 0.18723753 -0.17025733 -0.07835759 0.044106837 -0.0045408183 -0.04784258
0.07446968 0.02302716 0.060284093 0.14015272 0.09813593 0.17118523 -0.046768 0.038503915
0.01853322 0.058980793 0.078240044 0.022631273 -0.010465827 -0.116600074 0.02874233 0.047626644
0.07243584 -0.07561825 0.16456047 -0.14610054 -0.0937502 0.02206226 0.04835997 -0.08859893
-0.10656312 -0.16044624 -0.048103847 0.17880389 0.23767753 -0.06493562 -0.055212755 0.21417643
0.13892609 0.14594744 0.19897628 -0.074418046 -0.13067013 -0.06195782 -0.2836502 -0.010080089
-0.16358902 -0.120540276 0.107962884 -0.08822477 -0.10495009 0.0031108574 0.010741094 0.045284268
-0.17030455 0.04857251 -0.14690316 -0.050293848 0.13185872 -0.2563314 0.1205742 0.036538728
-0.031709824 -0.08454854 -0.14135134 -0.1254811 -0.07762376 -0.0484196 -0.11856023 -0.058019962
0.05901348 -0.10730826 -0.14519018 -0.054396942 -0.115500666 0.13787349 0.27977118 0.05326533
0.13432422 -0.0732753 0.18407649 0.1215375 0.045953102 -0.12416393 -0.18515755 -0.005660122
0.10306896 0.08997497 -0.033970438 -0.07421968 0.2378368 -0.005836541 0.015838798 0.0825901
0.0918005 -0.012568496 -0.1052818 0.083096646 0.32361776 0.20785013 0.04144819 -0.09850515
-0.014918985 0.13889556 -0.10708353 -0.07086419 0.0949339 -0.07230075 -0.08560914 -0.042942926
0.15942176 0.057497546 0.018030563 0.08995719 0.35663512 -0.03971327 0.20586756 0.18185194
-0.06685744 -0.041730452 0.12009603 0.023385458 0.056185815 -0.083807446 -0.13849834 -0.043973263
-0.14203914 0.013474127 0.035823308 -0.2407003 -0.048394624 0.044702105 -0.080847844 -0.06411424
-0.07833167 -0.034770515 0.18171923 0.1894943 -0.019904723 -0.0648611 0.08354652 -0.030639179
0.111283585 -0.14602143 0.045042057 0.006252699 0.0090554785 -0.048788864 0.1226503 0.082581304
0.02355065 0.1388385 -0.10964769 -0.029116612 0.016429294 -0.08854585 -0.12119892 0.11812729
-0.09473403 -0.22572157 0.0059311027 -0.051136326 0.0091667585 -0.13966429 0.19947892 -0.3115662
0.15177158 -0.29605067 -0.2182073 0.12740465 -0.19295941 -0.13755223 -0.027495537 0.06842583
-0.032884408 -0.09081571 -0.035430398 -0.10951814 0.06316746 0.09015572 0.033462938 0.22150862
-0.08199551 -0.13708718 -0.012118636 0.046255205 0.32060942 0.04558607 0.017978469 0.034528412
-0.062704995 0.11314305 -0.09576431 -0.029003115 0.063832335 0.16279231 -0.13250916 -0.1761551
0.20290141 0.15027502 -0.1395182 0.017217834 0.10009398 0.021802831 -0.09353544 0.015819399
0.05346526 -0.10290926 0.03627842 -0.2886013 0.0067817806 0.15797956 0.0053171203 -0.050198846
-0.011253111 0.062103506 0.010145875 0.04482684 0.19509064 0.23193671 0.23549527 0.14286096

conv1d.bias f4 [6]
00000000: a433 c4bd 71e5 06be 43a7 aebd 7e9d 39bd
00000010: aa8e 5bbc af51 e1bd
-0.09580162 -0.13173462 -0.085279964 -0.045316212 -0.013400713 -0.11001908

fc1.weight f4 [250, 6]
00000000: d0f5 c3be 1daa bebd 2cc9 983d 5805 b3be
00000010: e1b6 34bd 3d78 813e 3b8a 103e 58dd 91be
00000020: 55a2 c9bc 31a1 0939 3edf d5bd d336 8cbd
00000030: 05c0 7d3c df5e 8abe 5e12 91be 8abf dabc
00000040: d2e8 abbd 8357 8fbe 7f56 153d b626 90bd
00000050: ba0d 8fbd 51b0 07be 2837 c23d 08e5 97bd
00000060: 0a1d 77be e431 1ebe 8f58 81be d9a0 6b3e
00000070: 7efb 9d3d ee1e 0f3e d40a b1be 5b65 cfbe
00000080: 0c71 a0bd 9ebe 87be 84d9 dabd 4220 42be
00000090: 21d9 f73d 7055 d7be 2c45 063d 3844 e3be
000000a0: cd1d 21be 6fbd ae3e fb94 bdbd e46a 3abc
000000b0: abd3 f6be 3307 f0be ab71 0b3e c6c5 3e3e
000000c0: b409 133d f29c b6be 6a3e 343e 0a2c e63d
000000d0: 0264 ccbe 708f 9dbe 384f c13c a1ba 8b3d
000000e0: a6eb d93d 16ba afbd dcd8 82be 3d03 2cbe
000000f0: 667e 19be 216e 21be 5570 d5be 0152 0dbf
00000100: 5bf1 963e 062e ce3d 58f3 92be cb20 c6bd
00000110: 0236 1f3e de13 a2be 2a1d 933e 545c 48bd
00000120: a521 1a3e f663 b3bd 7a2c 74be 8aae 863e
00000130: 420a 583e becb 82bd 381e f9bd 6a2d e9be
00000140: 5ff3 1b3d 8414 2e3c 44e0 de3d 803f e3be
00000150: 2522 aebe 940d d8bc caad a8be 07a9 913e
00000160: ddab 09be 29d4 80bd 3ab5 4abe b3b2 edbd
00000170: c4fd c9be 05e0 d43c 130e 46be fd96 f43d
00000180: 5549 69be 8a86 89be 9574 15be 8c99 93bb
00000190: 253f 983e 622b 2abc 2dab f33d 4929 02be
000001a0: c04c 07bf f2c8 cebd 75aa cd3d 0395 a4be
000001b0: 0315 c63b ba4f a93e 0e3e 103e 67b3 023e
000001c0: 9124 55bd 1940 e1be e02d 1cbe 90d6 abbe
000001d0: 1014 5fbe 5037 b6bc d7bb e43e 2b2d 44be
000001e0: 393d 69be 3320 a7be ccc6 06be a612 12be
000001f0: 1f1e c4be f06d c93d be88 c13c 7424 d8be
00000200: c36f a0be 014b 373e 655f 6a3e 1cdf 463e
00000210: 7f14 ae3d 42c0 45be 783c a43d 1256 7e3c
00000220: d30c af3d 4885 6d3d b872 03be 3f7c 1bbe
00000230: 099e babe dad4 bebd 40ad d8bd d1a9 143e
00000240: 5c87 0dbf a3a3 13bc 6e4c 293e 35ce ba3e
00000250: 8a80 91be 2734 90bd 89b5 d93d ffb4 b4bd
00000260: b3c9 dabd dd51 4ebd fad0 003e dd01 8abe
00000270: facf 9abe c175 a93d 0714 9f3d 4d4a 883e
00000280: 5108 54be c792 33bd a3df 39be b68b babd
00000290: 128e ab3e e12f efbe f991 d93d 0e4e d7bd
000002a0: b93d c1bb c27b 053d a517 c0be a8d3 89bd
000002b0: 1c6a be3e 821e 89be 837a 28be 2d46 d93e
000002c0: 5607 c43d eb7f 243e f488 aabd 82ba c2be
000002d0: 14f1 39be 49e5 653e 7e2d bc3d b653 c03e
000002e0: a177 34be 7084 bdbe 53d6 d9be 4ebc 113e
000002f0: 7580 613e 9959 96be 4332 acbe ccff 37be
00000300: d2d5 27bd c04f c73e 504b 663e c458 a03e
00000310: 51bc 84be f49c bebe 5ba2 b63e 7f54 b4be
00000320: 78b7 08bf 314d 2dbe 8fc7 693e 5f79 45be
00000330: 6811 efbe 4d5c 54be b5e4 7fbc f886 8fbe
00000340: dfee 0e3e 847d 243e 73f4 e9be ffaa b0be
00000350: 6f60 a73c 02ae 74be 143d 0b3e f889 7e3e
00000360: 49f3 5abe 0a4f cd3e 0331 92bd 3ee9 eebd
00000370: fb14 233e ee9e edbe 0f6b f5be b7be 413d
00000380: 5f20 83be ee59 91bc 1b69 2ebd 30fb db3c
00000390: dcdf 4a3e 14bd 90be 197b 463e 1f68 9dbe
000003a0: c807 c6bd 3335 b9be 6cf2 ebbc 21b6 a3be
000003b0: 4f3e 5d3c 706a 86be 8dd8 243e 416b 8239
000003c0: 3d53 4e3e 9a1b 86be 4ca9 e2be 392c 793e
000003d0: eb63 2a3e f20d 00be d52f 96be 352b 233d
000003e0: e1f7 90be a0d2 773d df41 e93d 192c eabc
000003f0: a0d5 9d3c 88af 95be a894 16be da51 db3d
-0.38273478 -0.0930979 0.074602455 -0.34965014 -0.04411972 0.25287047 0.1411523 -0.28489184
-0.024613539 0.00013125387 -0.10442971 -0.068463944 0.015487676 -0.27025506 -0.28334326 -0.026702661
-0.08394016 -0.27996454 0.036459442 -0.070386335 -0.0698504 -0.13250853 0.094831765 -0.07416731
-0.24132171 -0.1544872 -0.25262877 0.23010577 0.07713984 0.13976642 -0.34578574 -0.40507016
-0.07834062 -0.26512617 -0.10686019 -0.18957618 0.12101961 -0.4205737 0.03278081 -0.44387984
-0.15734024 0.341289 -0.092569314 -0.011378024 -0.48208365 -0.46880493 0.1361758 0.18630132
0.035897925 -0.35666615 0.17601934 0.112388685 -0.3992005 -0.30773497 0.023597345 0.06822706
0.106406495 -0.08580415 -0.25556076 -0.1679811 -0.14989623 -0.15764667 -0.41687265 -0.55203253
0.29481015 0.10067372 -0.28701282 -0.096742235 0.15547946 -0.31655782 0.28733188 -0.048916176
0.15051897 -0.087593004 -0.23845091 0.26305038 0.21097663 -0.06386517 -0.12163967 -0.4554246
0.038073894 0.0106250085 0.10882619 -0.44384384 -0.34010425 -0.026373662 -0.3294509 0.2844927
-0.13444467 -0.06290466 -0.19795695 -0.1160635 -0.3945142 0.025985727 -0.19341306 0.11942861
-0.2278188 -0.26860458 -0.14595254 -0.004504388 0.29735675 -0.01038632 0.118978836 -0.12711062
-0.52851486 -0.10096921 0.10042278 -0.32144937 0.0060449853 0.3306864 0.14086172 0.12763749
-0.052036826 -0.43994215 -0.15251875 -0.33562136 -0.21784997 -0.022243172 0.4467456 -0.19157855
-0.22777261 -0.32641754 -0.13161772 -0.14264926 -0.3830423 0.09835422 0.023624774 -0.42215312
-0.31335267 0.17899705 0.22887953 0.19421047 0.08500003 -0.19311622 0.08019346 0.01552345
0.08547368 0.057988435 -0.1283673 -0.15184115 -0.36448696 -0.09317942 -0.1057992 0.14517905
-0.55284667 -0.009011182 0.16533062 0.36485448 -0.2841838 -0.07041197 0.10630328 -0.08823585
-0.10683002 -0.05037104 0.12579718 -0.26954547 -0.302368 0.08274413 0.07767492 0.26619187
-0.20706297 -0.04384115 -0.18151717 -0.09108679 0.3350683 -0.46716216 0.10623545 -0.105129346
-0.0058972505 0.032588728 -0.3751804 -0.06729823 0.3719033 -0.26781088 -0.16452985 0.42436352
0.09571712 0.16064422 -0.08326903 -0.3803292 -0.1815837 0.22450747 0.091883644 0.37563866
-0.1762376 -0.37015104 -0.4254633 0.14231989 0.22021659 -0.29365233 -0.33632097 -0.17968673
-0.0409754 0.38928032 0.22489667 0.31317723 -0.25924924 -0.3722912 0.35670742 -0.35220715
-0.5340495 -0.16923977 0.22830032 -0.1928458 -0.46692967 -0.20738335 -0.015618493 -0.2803266
0.1395831 0.16063505 -0.45694312 -0.3450546 0.020431725 -0.23894504 0.13597518 0.24857318
-0.21381868 0.40099365 -0.071382545 -0.11665581 0.15925972 -0.46410316 -0.47933242 0.04730102
-0.25610635 -0.017743077 -0.042580705 0.026853174 0.19811958 -0.28269255 0.19382896 -0.307435
-0.09669453 -0.361734 -0.02880212 -0.3197489 0.013503625 -0.2625308 0.16098233 0.00024875443
0.2014894 -0.26192933 -0.44269788 0.24333276 0.16639678 -0.1250532 -0.29333368 0.039836127
-0.28314117 0.060503602 0.11389517 -0.02858548 0.019266903 -0.29235482 -0.14705145 0.10708971

fc1.bias f4 [250]
00000000: 9a92 f93d 7aa3 81be 692d 863e 994e 233e
00000010: 4baa c7be d8b4 703e 7e3e 1abc f877 e9be
00000020: a2de 0ebe 5310 acbe 69a5 933e 1760 22be
00000030: cc10 cfbe b6e8 c23d 3c5c 083f d521 803e
00000040: fe69 5e3d dc46 91be 492d e33d ddc4 b8bd
00000050: 7420 77be a693 e73d 4128 fbbc bf32 7abe
00000060: dd07 143f 1170 78bd 2756 ddbd dbbb a8be
00000070: 32c8 d9bc 2200 993d 8a30 723e 699a 753d
00000080: 571a 86be ec17 763e e766 fa3e 21f1 453d
00000090: 51e6 8c3e 9d15 573e f54d 02bf 4323 353c
000000a0: f49f 4f3e d4a3 d639 f8b4 833e 8dfc 1cbe
000000b0: e9d8 e8bd cd8d a63e facc a9be 1f3c 63be
000000c0: 696f 2cbc 2005 11bf 0ebe e9be 79c0 a13d
000000d0: 2bd1 9b3e 7ae3 cebe 29d3 c8be 9ff8 d5be
000000e0: c341 ee3e 1ffe 9e3d 00e4 283e 61c5 593e
000000f0: ee12 13be bd0b b13e a9d1 f3be f860 0e3d
00000100: bcdf dbbe e900 693e fb4c 49be 3791 c03b
00000110: 4141 043e bdc5 093d ea10 05be 90b3 06bf
00000120: 15e9 86be 1b71 8f3d 151b f2bd 9cd5 1d3c
00000130: f71c a83e 9eb2 0cbe 74bb f9be 0284 353d
00000140: 98e6 bbbd 9553 49be c704 703e 31f7 bdbe
00000150: 8f1c 0fbe f6db 013f ab1e 16bd 8f36 a63e
00000160: 077a cbbe e401 543d 256c bb3d e034 febe
00000170: 79dd 86bd be3f 203e cbe6 9cbe e116 eebe
00000180: ce35 83be eaeb 093c 87e3 07bf 4b55 153e
00000190: dee2 7bbe f046 2d3d fd51 053e abb8 d9be
000001a0: 3a0c f5bc 105e 3f3e 31b1 dcbd 853c 0c3f
000001b0: 6da5 8a3c dd55 3abe 357d eb3d e0cd 99be
000001c0: 067d e6be 1312 db3c 266a e63d e216 81be
000001d0: 752f d83e 9454 b4be 006d 803e 549b 513e
000001e0: 754c bfbe 683c 673e e5bf 96bd aa7f dcbd
000001f0: 6e97 9cbe 0e15 c73e 2c2d 20be 78cf 233e
00000200: d1a3 4abe d8b1 6cbc 1bd6 693d 4642 363e
00000210: 9c45 1fbe 108c 353e 48c1 773e db4d 363e
00000220: 141b d23d e9fd ab3e 902d 593d ea02 fabd
00000230: 8324 08bd be34 19bb 0de1 aabe f0dd 8d3e
00000240: 4ffe e33d 01b7 86be 8bea b33e 61df 07be
00000250: 2449 7b3e 4270 8b3e 0afe 00bf d559 b33c
00000260: d0f3 99bd 05d2 233e 45eb 3abe 509f d4be
00000270: eb63 2dbd 941d 8f3e 6f07 9e3e a942 aabd
00000280: da31 2b3e 2418 203e 83fb a5bc b6e5 3d3e
00000290: d982 df3d 9619 cf3d 2eb1 60be 97d8 b7be
000002a0: 5d09 efbe 46a5 d0be 51ea 97be 4adb e63d
000002b0: 1bfd 913e bc12 213e 0c52 6bbe 9960 94be
000002c0: afa1 71be a36f bcbe c751 d5bd 7b47 ef3e
000002d0: 8103 f33d 4698 33bc 5394 12bf b08f 003e
000002e0: 9a18 e8be d6b8 833e fe34 43be 748a ff3d
000002f0: f28c 9c3d a558 ae3d 615d d73e 8329 6f3e
00000300: 967f 2fbe 51d7 3cbe b042 28be be17 2ebe
00000310: 86c5 b1be 32f4 69be 9522 a5be 129f e53d
00000320: 1ebf 0fbf c978 0bbf c8f7 92be 6e73 17bf
00000330: 40b0 7abe f81c 86be 64ff 82be 7476 e4be
00000340: 359c 11bd 1f9c 2e3d 9c32 533d 7990 d53d
00000350: 6c90 7ebd 53f7 d33e e9a3 c2bc 99a8 433d
00000360: 1246 393d 0cac debd 35e5 003f 5dc8 083e
00000370: 8bd0 98bd 530e 7cbe 0db8 82be 8fda 4abd
00000380: be36 30bc 2ef9 a3be f914 143f c05d 803e
00000390: 8a7a c6bc 8151 103e c6f6 413e bc02 50be
000003a0: 6603 71be cc39 a1be 6410 303e 7070 bbbd
000003b0: 7ce6 e23c e0ad 4dbc fdb2 213e 60e7 6bbc
000003c0: 73f1 4abe 2d78 d33c c99b 4dbe 369b ba3e
000003d0: 0db3 443e 69e9 20be a1ff 113c 90bb 9a3c
000003e0: 888c 3ebe 32c1 023e
0.12186165 -0.25320035 0.2620652 0.15947951 -0.3899711 0.23506486 -0.009414313 -0.4559934
-0.13952115 -0.33606204 0.28837135 -0.15856968 -0.40442502 0.09517042 0.5326574 0.25025812
0.0543003 -0.28374374 0.11092622 -0.09021924 -0.24133474 0.113074586 -0.030658843 -0.2443342
0.578245 -0.06065375 -0.10807448 -0.32955822 -0.026584718 0.074707285 0.23651329 0.05996171
-0.2619197 0.24032563 0.48906633 0.04832566 0.27519467 0.21004339 -0.50900203 0.01105577
0.20275861 0.00040939322 0.25724006 -0.15330715 -0.11369497 0.3253006 -0.33164197 -0.22190903
-0.010524609 -0.56648445 -0.45652813 0.07898039 0.3043302 -0.40407926 -0.39223602 -0.41791245
0.46534547 0.077633135 0.16493225 0.212667 -0.1436269 0.34579268 -0.47620896 0.034760445
-0.42944133 0.22754253 -0.19658272 0.005876686 0.12915517 0.033635844 -0.12994733 -0.5261774
-0.26349702 0.07003995 -0.11821572 0.009633448 0.32834598 -0.13740012 -0.48775828 0.044315346
-0.09174842 -0.1966079 0.23439322 -0.37102655 -0.13975738 0.5072626 -0.03665034 0.324635
-0.39741537 0.051759616 0.09151486 -0.49649715 -0.06585211 0.15649316 -0.3064483 -0.4650183
-0.25626987 0.008418063 -0.53081554 0.14583318 -0.24598262 0.04230398 0.13019557 -0.42523703
-0.029913057 0.18688226 -0.10775984 0.54779845 0.016924584 -0.18196817 0.11498491 -0.30039883
-0.4501726 0.026742017 0.11250715 -0.2521277 0.42223707 -0.35220778 0.2508316 0.20469409
-0.3736302 0.22581637 -0.0736082 -0.107665375 -0.30584282 0.3888325 -0.15642232 0.15997112
-0.19789053 -0.014446698 0.057088953 0.17798719 -0.15553898 0.17729211 0.24194825 0.17803137
0.10259071 0.33592156 0.053021967 -0.12207587 -0.033237945 -0.0023377384 -0.33374825 0.27708387
0.1113249 -0.26311496 0.3513988 -0.13268806 0.2453962 0.27234083 -0.5038763 0.021893421
-0.07517207 0.15998085 -0.1825381 -0.41527796 -0.042331617 0.27952254 0.30865046 -0.08313496
0.16718236 0.15634209 -0.020261532 0.18544659 0.10913629 0.10112302 -0.21942589 -0.35907432
-0.4668683 -0.40751094 -0.29670957 0.11272295 0.28513417 0.15729803 -0.22980517 -0.28979948
-0.23596834 -0.36803922 -0.104159884 0.46734223 0.11865903 -0.010961598 -0.57257575 0.12554812
-0.4533127 0.25726956 -0.19063184 0.1247758 0.07644071 0.08513001 0.4206343 0.23355679
-0.17138514 -0.18441512 -0.1643169 -0.17001244 -0.3472101 -0.2284706 -0.32252946 0.11211981
-0.56150997 -0.5448118 -0.28704667 -0.59160507 -0.24481297 -0.26193976 -0.25585473 -0.44621623
-0.03554936 0.042629357 0.051561937 0.104279466 -0.06214945 0.4139963 -0.0237598 0.04776821
0.04523284 -0.10872659 0.5034974 0.13357683 -0.074616514 -0.2461484 -0.25531045 -0.04952484
-0.010755239 -0.32026047 0.578445 0.25071526 -0.024228353 0.14093591 0.18941793 -0.20313543
-0.23536453 -0.31489408 0.17193753 -0.09152305 0.027697794 -0.012553662 0.15790935 -0.014398426
-0.19818668 0.02581414 -0.20078959 0.36446542 0.19208927 -0.15714039 0.008911044 0.018888265
-0.18608296 0.1276901

fc2.weight f4 [1, 250]
00000000: fef1 193e 2d9b c63c 3e0f 1cbb 730f 1e3c
00000010: c798 2c3d e216 16bd 0996 87bd 46df cdbd
00000020: 45bb 283b 9f47 3fbc 38bd 59be dc9d 743c
00000030: ce89 613d 8b27 d8bd 3ea0 4abe 0b0a d7bc
00000040: 3545 c13d 72cf 803d 942f 11bd 3b1e b93d
00000050: 2eb6 013d a822 1a3d 7b11 e83c f61a 8dbc
00000060: a186 95be e721 04bc 5496 18bc af7e 1b3e
00000070: 6553 3d3d 009b 99bd 66d1 8dbd fad3 43bb
00000080: b9e9 a0bd 8563 323d 035a 363e 7719 db3d
00000090: 6ec0 1dbc a346 a8bc b792 213d 509d 54bc
000000a0: 4a58 d33c d1cf 9b3c c401 7d3c 8b85 d53c
000000b0: 6fc5 d7bc d53e 823d 7b1b 3abc 2b82 fb3d
000000c0: 023c 1abe d803 c23d 0910 b23d c2a1 183e
000000d0: 4e76 223e c9bf 69be e7f8 5b3c 8a81 6c3e
000000e0: 5ad4 22be b4ea 91bd 145f 72bb d320 d0be
000000f0: 9b54 d63c 9c96 093e 4508 473c 4ea5 aa3c
00000100: 55be 73bc 3742 763b 7930 22be a8a5 46be
00000110: a0b7 07be 1d3d dabd 7069 abbd e041 c0bd
00000120: 83e5 59bd 4a4e 783d d33f 96bc ebfe 583d
00000130: a264 61bc 3967 62bd e23e ac3c a932 453d
00000140: 6c0c b3bc 6e79 e73b 57b4 26bd 1383 08bb
00000150: a1a5 39be 5989 c6be 1348 303d 21cb d7bd
00000160: ef0b 843d c98a 22be 1595 8dbe 886a cb3c
00000170: 86aa 13bd e0db 983e 5026 f53c 154a d6ba
00000180: b30b 113e c710 503c 8e4a 303d 022c 87bd
00000190: c00a 61bd e72b 973c 3d32 86bd ff70 adbc
000001a0: af28 283b 9344 213e 214e 89bd 80c4 1bbe
000001b0: 56da 563c a5c1 a1bd ce3f 33bc 309e 88be
000001c0: e54b e03d 9811 fabd 409b 823c dc5e 7abc
000001d0: fa88 4ebe 042f 70bc 0eff 6ebc 230c 093d
000001e0: f0a2 f6bd 7ed6 533d 243f 293e f870 14be
000001f0: d52c d1bc 3b6b 17be f0c8 2abe f26e 0e3e
00000200: 454e b33d ad0d 353d f917 663d c6b1 a83d
00000210: 911f 513d 9b15 a4bd ab96 aabd 350b fbbb
00000220: 12d7 6a3d cedf cbbd 7614 cd3d 9c01 35be
00000230: 0e72 83bd 71ed 2c3b 3efd 43bd dd67 c43d
00000240: 24c0 b4bd 94e9 5dbd 8c42 d83c a97a 22be
00000250: b48c e83c 1669 cebd b6f5 2bbe 2e31 a4bc
00000260: 9703 133c 418f 93bc 6c4a 39bd 9523 2d3d
00000270: 99c2 b8bc 2940 113d 5b58 503d 4b12 373d
00000280: f7c0 e3bc 6f08 30bc 9ef4 d4ba f2ab 533c
00000290: 6717 4abd ab87 21bc d1e9 ee3c 974f 003e
000002a0: 1ce3 83bd 7327 28bc cff4 47bc eab7 a33d
000002b0: a99d fcba 57a2 d13d a728 0f3d 73a5 f63c
000002c0: 0ac5 b3bd ee37 11bd a839 67bd eb08 33be
000002d0: 59a8 82bd 3b2b c1bb c1e4 26bc 3f36 31bb
000002e0: 6a63 863d 5349 e33b dcb7 fcbd a77a ec3d
000002f0: 6bcd cd3c 605e 13bd 0611 5fbc eb1a ddbb
00000300: a2d1 bfbd b231 71bd 0940 983a 58f8 72bd
00000310: 3401 8b3c 5db0 dd3d 9b23 243d 4b02 acbd
00000320: a3a0 00bd c497 dc3c f5ac 76bd 2694 363e
00000330: 7a5d 05be ec90 44bd 1d78 6abd d5c2 d3bc
00000340: 86c3 67bd be04 1cbe cd17 763d cac5 46bd
00000350: 8db7 a1bc 44ae b3bd 65f1 17be b55f 8e3d
00000360: d753 50bc 3ef0 5dbb b045 373d c9a2 5dbd
00000370: 756c dc3b 9eaa bb3c 0d63 2a3e fd18 6bbd
00000380: 912d 4e3c e8be a8bc 9cb3 f5be 18a5 8d3c
00000390: a250 17be 4a86 12bd 9108 2e3d a0c0 96ba
000003a0: fdba 16bd 08ed 81bd 530f 7c3c a981 72bd
000003b0: f7d3 763c e2c3 aabd c85b d3bd 0024 e2b9
000003c0: dd31 953d e7c6 6dbb 41a1 04bd e7e1 63bd
000003d0: 0685 d13b 78af 453c c3be 3abd 3661 d13d
000003e0: 58fd 3c3d e5b0 ffbc
0.15033719 0.024243915 -0.0023812796 0.009647238 0.042137887 -0.036642917 -0.06620414 -0.10052352
0.0025746387 -0.011674791 -0.21263587 0.014930215 0.05506306 -0.10554417 -0.1978769 -0.026249906
0.09437028 0.06289567 -0.035445765 0.09038969 0.03166788 0.037630707 0.028328648 -0.01722477
-0.29204276 -0.008064724 -0.009313185 0.15185045 0.04622211 -0.07500267 -0.06924705 -0.0029880987
-0.07857079 0.04355194 0.17807774 0.106982164 -0.009628398 -0.020541495 0.03944656 -0.012976959
0.025798935 0.019019993 0.0154423155 0.026064655 -0.02633926 0.063596405 -0.011359091 0.12280687
-0.15061954 0.094733894 0.08694465 0.14905456 0.15865442 -0.22827066 0.013426042 0.2309629
-0.15901318 -0.07124844 -0.003698294 -0.40650043 0.02616339 0.13436359 0.012147968 0.020830777
-0.014876922 0.0037576088 -0.15838803 -0.1939913 -0.13253641 -0.10656188 -0.0836972 -0.09387565
-0.053197395 0.060621537 -0.01834098 0.052977484 -0.013756903 -0.055274222 0.021026079 0.048144016
-0.02185651 0.007064036 -0.04069933 -0.002083008 -0.18129589 -0.38776663 0.043037485 -0.10536791
0.06447589 -0.15873255 -0.27652803 0.024831071 -0.036051296 0.2985525 0.029925495 -0.0016348982
0.14164619 0.0126993125 0.04303985 -0.06600191 -0.054941893 0.018453551 -0.06552551 -0.021172045
0.0025659015 0.15748815 -0.06704355 -0.15211678 0.013113579 -0.07898263 -0.010940505 -0.26683187
0.10951976 -0.12210387 0.01594317 -0.015281405 -0.2016944 -0.014659647 -0.014587177 0.03345884
-0.120427966 0.051718228 0.16527992 -0.14496219 -0.025534073 -0.14786999 -0.16678214 0.1390951
0.08755163 0.044202495 0.056175206 0.082370326 0.051055495 -0.080119334 -0.08329519 -0.007661248
0.057334013 -0.09954797 0.10013668 -0.17676395 -0.064182386 0.0026386643 -0.047848932 0.09590123
-0.088257104 -0.054177836 0.02639892 -0.15867104 0.028387405 -0.10078637 -0.1679295 -0.020042982
0.008973024 -0.018012645 -0.04523699 0.04227026 -0.022553729 0.03546158 0.050865512 0.04469518
-0.027801974 -0.010744198 -0.0016247218 0.012919413 -0.049338724 -0.009859006 0.029164227 0.12530361
-0.06439802 -0.010263312 -0.012204363 0.07994063 -0.0019273061 0.10236042 0.03495088 0.03010819
-0.087778166 -0.03545373 -0.05645147 -0.1748387 -0.06379766 -0.005895046 -0.010186375 -0.002704039
0.065619305 0.006936231 -0.12339756 0.115468316 0.025122365 -0.035978675 -0.013614899 -0.0067475936
-0.09366156 -0.058885284 0.0011615764 -0.05931887 0.016968347 0.10824654 0.04007302 -0.08398875
-0.031403195 0.026927836 -0.06022354 0.17829952 -0.1302394 -0.04798977 -0.057243455 -0.02584974
-0.05658295 -0.15236184 0.060081292 -0.04852847 -0.019740844 -0.08773473 -0.14838178 0.069518484
-0.0127153015 -0.003386512 0.044744194 -0.054110322 0.0067267963 0.022908505 0.16639347 -0.057396878
0.012584106 -0.020598844 -0.47988594 0.017290637 -0.14776853 -0.0357726 0.04248864 -0.0011501499
-0.03679942 -0.06344038 0.015384513 -0.059205685 0.015065185 -0.08338143 -0.1032024 -0.000431329
0.07284901 -0.0036281885 -0.032380346 -0.05563536 0.0063940315 0.012065761 -0.04559208 0.1022362
0.046140045 -0.03121228
